…
  EMA_ALPHA: 0.0
  EMA_UPDATE_PERIOD: 8
  EPOCHS: 300
  LR_SCHEDULER:
    DECAY_EPOCHS: 30
    DECAY_RATE: 0.1
    NAME: cosine
  MIN_LR: 0.0
  OPTIMIZER:
    BETAS:
    - 0.9
    - 0.999
    EPS: 1.0e-08
    MOMENTUM: 0.9
    NAME: sgd
  SCALES_PATH: null
  START_EPOCH: 0
  USE_CHECKPOINT: false
  WARMUP_EPOCHS: 20
  WARMUP_LR: 0.0
  WEIGHT_DECAY: 0.05

[2023-10-16 16:43:26 RepVGG-A1] (main.py 87): INFO Creating model:RepVGG-A1
[2023-10-16 16:43:27 RepVGG-A1] (main.py 97): INFO RepVGG(
  (stage0): RepVGGBlock(
    (nonlinearity): ReLU()
    (se): Identity()
    (dx_add): DxAdd()
    (rbr_reparam): Conv2d(3, 64, kernel_size=(3, 3), stride=(2, 2), padding=(1, 1))
  )
  (stage1): ModuleList(
    (0): RepVGGBlock(
      (nonlinearity): ReLU()
      (se): Identity()
      (dx_add): DxAdd()
      (rbr_reparam): Conv2d(64, 64, kernel_size=(3, 3), stride=(2, 2), padding=(1, 1))
    )
    (1): RepVGGBlock(
      (nonlinearity): ReLU()
      (se): Identity()
      (dx_add): DxAdd()
      (rbr_reparam): Conv2d(64, 64, kernel_size=(3, 3), stride=(1, 1), padding=(1, 1))
    )
  )
  (stage2): ModuleList(
    (0): RepVGGBlock(
      (nonlinearity): ReLU()
      (se): Identity()
      (dx_add): DxAdd()
      (rbr_reparam): Conv2d(64, 128, kernel_size=(3, 3), stride=(2, 2), padding=(1, 1))
    )
    (1): RepVGGBlock(
      (nonlinearity): ReLU()
      (se): Identity()
      (dx_add): DxAdd()
      (rbr_reparam): Conv2d(128, 128, kernel_size=(3, 3), stride=(1, 1), padding=(1, 1))
    )
    (2): RepVGGBlock(
      (nonlinearity): ReLU()
      (se): Identity()
      (dx_add): DxAdd()
      (rbr_reparam): Conv2d(128, 128, kernel_size=(3, 3), stride=(1, 1), padding=(1, 1))
    )
    (3): RepVGGBlock(
      (nonlinearity): ReLU()
      (se): Identity()
      (dx_add): DxAdd()
      (rbr_reparam): Conv2d(128, 128, kernel_size=(3, 3), stride=(1, 1), padding=(1, 1))
    )
  )
  (stage3): ModuleList(
    (0): RepVGGBlock(
      (nonlinearity): ReLU()
      (se): Identity()
      (dx_add): DxAdd()
      (rbr_reparam): Conv2d(128, 256, kernel_size=(3, 3), stride=(2, 2), padding=(1, 1))
    )
    (1): RepVGGBlock(
      (nonlinearity): ReLU()
      (se): Identity()
      (dx_add): DxAdd()
      (rbr_reparam): Conv2d(256, 256, kernel_size=(3, 3), stride=(1, 1), padding=(1, 1))
    )
    (2): RepVGGBlock(
      (nonlinearity): ReLU()
      (se): Identity()
      (dx_add): DxAdd()
      (rbr_reparam): Conv2d(256, 256, kernel_size=(3, 3), stride=(1, 1), padding=(1, 1))
    )
    (3): RepVGGBlock(
      (nonlinearity): ReLU()
      (se): Identity()
      (dx_add): DxAdd()
      (rbr_reparam): Conv2d(256, 256, kernel_size=(3, 3), stride=(1, 1), padding=(1, 1))
    )
    (4): RepVGGBlock(
      (nonlinearity): ReLU()
      (se): Identity()
      (dx_add): DxAdd()
      (rbr_reparam): Conv2d(256, 256, kernel_size=(3, 3), stride=(1, 1), padding=(1, 1))
    )
    (5): RepVGGBlock(
      (nonlinearity): ReLU()
      (se): Identity()
      (dx_add): DxAdd()
      (rbr_reparam): Conv2d(256, 256, kernel_size=(3, 3), stride=(1, 1), padding=(1, 1))
    )
    (6): RepVGGBlock(
      (nonlinearity): ReLU()
      (se): Identity()
      (dx_add): DxAdd()
      (rbr_reparam): Conv2d(256, 256, kernel_size=(3, 3), stride=(1, 1), padding=(1, 1))
    )
    (7): RepVGGBlock(
      (nonlinearity): ReLU()
      (se): Identity()
      (dx_add): DxAdd()
      (rbr_reparam): Conv2d(256, 256, kernel_size=(3, 3), stride=(1, 1), padding=(1, 1))
    )
    (8): RepVGGBlock(
      (nonlinearity): ReLU()
      (se): Identity()
      (dx_add): DxAdd()
      (rbr_reparam): Conv2d(256, 256, kernel_size=(3, 3), stride=(1, 1), padding=(1, 1))
    )
    (9): RepVGGBlock(
      (nonlinearity): ReLU()
      (se): Identity()
      (dx_add): DxAdd()
      (rbr_reparam): Conv2d(256, 256, kernel_size=(3, 3), stride=(1, 1), padding=(1, 1))
    )
    (10): RepVGGBlock(
      (nonlinearity): ReLU()
      (se): Identity()
      (dx_add): DxAdd()
      (rbr_reparam): Conv2d(256, 256, kernel_size=(3, 3), stride=(1, 1), padding=(1, 1))
    )
    (11): RepVGGBlock(
      (nonlinearity): ReLU()
      (se): Identity()
      (dx_add): DxAdd()
      (rbr_reparam): Conv2d(256, 256, kernel_size=(3, 3), stride=(1, 1), padding=(1, 1))
    )
    (12): RepVGGBlock(
      (nonlinearity): ReLU()
      (se): Identity()
      (dx_add): DxAdd()
      (rbr_reparam): Conv2d(256, 256, kernel_size=(3, 3), stride=(1, 1), padding=(1, 1))
    )
    (13): RepVGGBlock(
      (nonlinearity): ReLU()
      (se): Identity()
      (dx_add): DxAdd()
      (rbr_reparam): Conv2d(256, 256, kernel_size=(3, 3), stride=(1, 1), padding=(1, 1))
    )
  )
  (stage4): ModuleList(
    (0): RepVGGBlock(
      (nonlinearity): ReLU()
      (se): Identity()
      (dx_add): DxAdd()
      (rbr_reparam): Conv2d(256, 1280, kernel_size=(3, 3), stride=(2, 2), padding=(1, 1))
    )
  )
  (gap): AdaptiveAvgPool2d(output_size=1)
  (linear): Linear(in_features=1280, out_features=1000, bias=True)
  (identity): Identity()
  (dx_view): DxView()
)
[2023-10-16 16:43:40 RepVGG-A1] (main.py 150): INFO number of params: 12796478
[2023-10-16 16:45:10 RepVGG-A1] (main.py 478): INFO Full config saved to train_results/RepVGG-A1/eval/config.json
[2023-10-16 16:45:10 RepVGG-A1] (main.py 481): INFO AMP_OPT_LEVEL: O0
AUG:
  AUTO_AUGMENT: rand-m9-mstd0.5-inc1
…
