…
  EMA_ALPHA: 0.0
  EMA_UPDATE_PERIOD: 8
  EPOCHS: 300
  LR_SCHEDULER:
    DECAY_EPOCHS: 30
    DECAY_RATE: 0.1
    NAME: cosine
  MIN_LR: 0.0
  OPTIMIZER:
    BETAS:
    - 0.9
    - 0.999
    EPS: 1.0e-08
    MOMENTUM: 0.9
    NAME: sgd
  SCALES_PATH: null
  START_EPOCH: 0
  USE_CHECKPOINT: false
  WARMUP_EPOCHS: 0
  WARMUP_LR: 0.0
  WEIGHT_DECAY: 0.0001

[2023-10-17 11:33:45 RepVGG-A1] (main.py 97): INFO Creating model:RepVGG-A1
[2023-10-17 11:33:46 RepVGG-A1] (main.py 107): INFO RepVGG(
  (stage0): RepVGGBlock(
    (nonlinearity): ReLU()
    (se): Identity()
    (dx_add): DxAdd()
    (rbr_reparam): Conv2d(3, 64, kernel_size=(3, 3), stride=(2, 2), padding=(1, 1))
  )
  (stage1): ModuleList(
    (0): RepVGGBlock(
      (nonlinearity): ReLU()
      (se): Identity()
      (dx_add): DxAdd()
      (rbr_reparam): Conv2d(64, 64, kernel_size=(3, 3), stride=(2, 2), padding=(1, 1))
    )
    (1): RepVGGBlock(
      (nonlinearity): ReLU()
      (se): Identity()
      (dx_add): DxAdd()
      (rbr_reparam): Conv2d(64, 64, kernel_size=(3, 3), stride=(1, 1), padding=(1, 1))
    )
  )
  (stage2): ModuleList(
    (0): RepVGGBlock(
      (nonlinearity): ReLU()
      (se): Identity()
      (dx_add): DxAdd()
      (rbr_reparam): Conv2d(64, 128, kernel_size=(3, 3), stride=(2, 2), padding=(1, 1))
    )
    (1): RepVGGBlock(
      (nonlinearity): ReLU()
      (se): Identity()
      (dx_add): DxAdd()
      (rbr_reparam): Conv2d(128, 128, kernel_size=(3, 3), stride=(1, 1), padding=(1, 1))
    )
    (2): RepVGGBlock(
      (nonlinearity): ReLU()
      (se): Identity()
      (dx_add): DxAdd()
      (rbr_reparam): Conv2d(128, 128, kernel_size=(3, 3), stride=(1, 1), padding=(1, 1))
    )
    (3): RepVGGBlock(
      (nonlinearity): ReLU()
      (se): Identity()
      (dx_add): DxAdd()
      (rbr_reparam): Conv2d(128, 128, kernel_size=(3, 3), stride=(1, 1), padding=(1, 1))
    )
  )
  (stage3): ModuleList(
    (0): RepVGGBlock(
      (nonlinearity): ReLU()
      (se): Identity()
      (dx_add): DxAdd()
      (rbr_reparam): Conv2d(128, 256, kernel_size=(3, 3), stride=(2, 2), padding=(1, 1))
    )
    (1): RepVGGBlock(
      (nonlinearity): ReLU()
      (se): Identity()
      (dx_add): DxAdd()
      (rbr_reparam): Conv2d(256, 256, kernel_size=(3, 3), stride=(1, 1), padding=(1, 1))
    )
    (2): RepVGGBlock(
      (nonlinearity): ReLU()
      (se): Identity()
      (dx_add): DxAdd()
      (rbr_reparam): Conv2d(256, 256, kernel_size=(3, 3), stride=(1, 1), padding=(1, 1))
    )
    (3): RepVGGBlock(
      (nonlinearity): ReLU()
      (se): Identity()
      (dx_add): DxAdd()
      (rbr_reparam): Conv2d(256, 256, kernel_size=(3, 3), stride=(1, 1), padding=(1, 1))
    )
    (4): RepVGGBlock(
      (nonlinearity): ReLU()
      (se): Identity()
      (dx_add): DxAdd()
      (rbr_reparam): Conv2d(256, 256, kernel_size=(3, 3), stride=(1, 1), padding=(1, 1))
    )
    (5): RepVGGBlock(
      (nonlinearity): ReLU()
      (se): Identity()
      (dx_add): DxAdd()
      (rbr_reparam): Conv2d(256, 256, kernel_size=(3, 3), stride=(1, 1), padding=(1, 1))
    )
    (6): RepVGGBlock(
      (nonlinearity): ReLU()
      (se): Identity()
      (dx_add): DxAdd()
      (rbr_reparam): Conv2d(256, 256, kernel_size=(3, 3), stride=(1, 1), padding=(1, 1))
    )
    (7): RepVGGBlock(
      (nonlinearity): ReLU()
      (se): Identity()
      (dx_add): DxAdd()
      (rbr_reparam): Conv2d(256, 256, kernel_size=(3, 3), stride=(1, 1), padding=(1, 1))
    )
    (8): RepVGGBlock(
      (nonlinearity): ReLU()
      (se): Identity()
      (dx_add): DxAdd()
      (rbr_reparam): Conv2d(256, 256, kernel_size=(3, 3), stride=(1, 1), padding=(1, 1))
    )
    (9): RepVGGBlock(
      (nonlinearity): ReLU()
      (se): Identity()
      (dx_add): DxAdd()
      (rbr_reparam): Conv2d(256, 256, kernel_size=(3, 3), stride=(1, 1), padding=(1, 1))
    )
    (10): RepVGGBlock(
      (nonlinearity): ReLU()
      (se): Identity()
      (dx_add): DxAdd()
      (rbr_reparam): Conv2d(256, 256, kernel_size=(3, 3), stride=(1, 1), padding=(1, 1))
    )
    (11): RepVGGBlock(
      (nonlinearity): ReLU()
      (se): Identity()
      (dx_add): DxAdd()
      (rbr_reparam): Conv2d(256, 256, kernel_size=(3, 3), stride=(1, 1), padding=(1, 1))
    )
    (12): RepVGGBlock(
      (nonlinearity): ReLU()
      (se): Identity()
      (dx_add): DxAdd()
      (rbr_reparam): Conv2d(256, 256, kernel_size=(3, 3), stride=(1, 1), padding=(1, 1))
    )
    (13): RepVGGBlock(
      (nonlinearity): ReLU()
      (se): Identity()
      (dx_add): DxAdd()
      (rbr_reparam): Conv2d(256, 256, kernel_size=(3, 3), stride=(1, 1), padding=(1, 1))
    )
  )
  (stage4): ModuleList(
    (0): RepVGGBlock(
      (nonlinearity): ReLU()
      (se): Identity()
      (dx_add): DxAdd()
      (rbr_reparam): Conv2d(256, 1280, kernel_size=(3, 3), stride=(2, 2), padding=(1, 1))
    )
  )
  (gap): AdaptiveAvgPool2d(output_size=1)
  (linear): Linear(in_features=1280, out_features=1000, bias=True)
  (identity): Identity()
  (dx_view): DxView()
)
[2023-10-17 11:33:51 RepVGG-A1] (main.py 160): INFO number of params: 12796478
[2023-10-17 11:33:51 RepVGG-A1] (main.py 197): INFO no checkpoint found in train_results/RepVGG-A1/qmaster3, ignoring auto resume
[2023-10-17 11:33:51 RepVGG-A1] (main.py 203): INFO Start training
[2023-10-17 11:33:53 RepVGG-A1] (main.py 332): INFO Train: [0/300][0/10009]	eta 5:23:48 lr 0.000005	time 1.9411 (1.9411)	loss 3.7916 (3.7916)	grad_norm 154.6503 (154.6503)	mem 4855MB
…
