…
  EMA_ALPHA: 0.0
  EMA_UPDATE_PERIOD: 8
  EPOCHS: 300
  LR_SCHEDULER:
    DECAY_EPOCHS: 30
    DECAY_RATE: 0.1
    NAME: cosine
  MIN_LR: 0.0
  OPTIMIZER:
    BETAS:
    - 0.9
    - 0.999
    EPS: 1.0e-08
    MOMENTUM: 0.9
    NAME: sgd
  SCALES_PATH: null
  START_EPOCH: 0
  USE_CHECKPOINT: false
  WARMUP_EPOCHS: 0
  WARMUP_LR: 0.0
  WEIGHT_DECAY: 0.0001

[2023-10-16 14:57:47 RepVGG-A2] (main.py 87): INFO Creating model:RepVGG-A2
[2023-10-16 14:57:48 RepVGG-A2] (main.py 97): INFO RepVGG(
  (stage0): RepVGGBlock(
    (nonlinearity): ReLU()
    (se): Identity()
    (dx_add): DxAdd()
    (rbr_reparam): Conv2d(3, 64, kernel_size=(3, 3), stride=(2, 2), padding=(1, 1))
  )
  (stage1): ModuleList(
    (0): RepVGGBlock(
      (nonlinearity): ReLU()
      (se): Identity()
      (dx_add): DxAdd()
      (rbr_reparam): Conv2d(64, 96, kernel_size=(3, 3), stride=(2, 2), padding=(1, 1))
    )
    (1): RepVGGBlock(
      (nonlinearity): ReLU()
      (se): Identity()
      (dx_add): DxAdd()
      (rbr_reparam): Conv2d(96, 96, kernel_size=(3, 3), stride=(1, 1), padding=(1, 1))
    )
  )
  (stage2): ModuleList(
    (0): RepVGGBlock(
      (nonlinearity): ReLU()
      (se): Identity()
      (dx_add): DxAdd()
      (rbr_reparam): Conv2d(96, 192, kernel_size=(3, 3), stride=(2, 2), padding=(1, 1))
    )
    (1): RepVGGBlock(
      (nonlinearity): ReLU()
      (se): Identity()
      (dx_add): DxAdd()
      (rbr_reparam): Conv2d(192, 192, kernel_size=(3, 3), stride=(1, 1), padding=(1, 1))
    )
    (2): RepVGGBlock(
      (nonlinearity): ReLU()
      (se): Identity()
      (dx_add): DxAdd()
      (rbr_reparam): Conv2d(192, 192, kernel_size=(3, 3), stride=(1, 1), padding=(1, 1))
    )
    (3): RepVGGBlock(
      (nonlinearity): ReLU()
      (se): Identity()
      (dx_add): DxAdd()
      (rbr_reparam): Conv2d(192, 192, kernel_size=(3, 3), stride=(1, 1), padding=(1, 1))
    )
  )
  (stage3): ModuleList(
    (0): RepVGGBlock(
      (nonlinearity): ReLU()
      (se): Identity()
      (dx_add): DxAdd()
      (rbr_reparam): Conv2d(192, 384, kernel_size=(3, 3), stride=(2, 2), padding=(1, 1))
    )
    (1): RepVGGBlock(
      (nonlinearity): ReLU()
      (se): Identity()
      (dx_add): DxAdd()
      (rbr_reparam): Conv2d(384, 384, kernel_size=(3, 3), stride=(1, 1), padding=(1, 1))
    )
    (2): RepVGGBlock(
      (nonlinearity): ReLU()
      (se): Identity()
      (dx_add): DxAdd()
      (rbr_reparam): Conv2d(384, 384, kernel_size=(3, 3), stride=(1, 1), padding=(1, 1))
    )
    (3): RepVGGBlock(
      (nonlinearity): ReLU()
      (se): Identity()
      (dx_add): DxAdd()
      (rbr_reparam): Conv2d(384, 384, kernel_size=(3, 3), stride=(1, 1), padding=(1, 1))
    )
    (4): RepVGGBlock(
      (nonlinearity): ReLU()
      (se): Identity()
      (dx_add): DxAdd()
      (rbr_reparam): Conv2d(384, 384, kernel_size=(3, 3), stride=(1, 1), padding=(1, 1))
    )
    (5): RepVGGBlock(
      (nonlinearity): ReLU()
      (se): Identity()
      (dx_add): DxAdd()
      (rbr_reparam): Conv2d(384, 384, kernel_size=(3, 3), stride=(1, 1), padding=(1, 1))
    )
    (6): RepVGGBlock(
      (nonlinearity): ReLU()
      (se): Identity()
      (dx_add): DxAdd()
      (rbr_reparam): Conv2d(384, 384, kernel_size=(3, 3), stride=(1, 1), padding=(1, 1))
    )
    (7): RepVGGBlock(
      (nonlinearity): ReLU()
      (se): Identity()
      (dx_add): DxAdd()
      (rbr_reparam): Conv2d(384, 384, kernel_size=(3, 3), stride=(1, 1), padding=(1, 1))
    )
    (8): RepVGGBlock(
      (nonlinearity): ReLU()
      (se): Identity()
      (dx_add): DxAdd()
      (rbr_reparam): Conv2d(384, 384, kernel_size=(3, 3), stride=(1, 1), padding=(1, 1))
    )
    (9): RepVGGBlock(
      (nonlinearity): ReLU()
      (se): Identity()
      (dx_add): DxAdd()
      (rbr_reparam): Conv2d(384, 384, kernel_size=(3, 3), stride=(1, 1), padding=(1, 1))
    )
    (10): RepVGGBlock(
      (nonlinearity): ReLU()
      (se): Identity()
      (dx_add): DxAdd()
      (rbr_reparam): Conv2d(384, 384, kernel_size=(3, 3), stride=(1, 1), padding=(1, 1))
    )
    (11): RepVGGBlock(
      (nonlinearity): ReLU()
      (se): Identity()
      (dx_add): DxAdd()
      (rbr_reparam): Conv2d(384, 384, kernel_size=(3, 3), stride=(1, 1), padding=(1, 1))
    )
    (12): RepVGGBlock(
      (nonlinearity): ReLU()
      (se): Identity()
      (dx_add): DxAdd()
      (rbr_reparam): Conv2d(384, 384, kernel_size=(3, 3), stride=(1, 1), padding=(1, 1))
    )
    (13): RepVGGBlock(
      (nonlinearity): ReLU()
      (se): Identity()
      (dx_add): DxAdd()
      (rbr_reparam): Conv2d(384, 384, kernel_size=(3, 3), stride=(1, 1), padding=(1, 1))
    )
  )
  (stage4): ModuleList(
    (0): RepVGGBlock(
      (nonlinearity): ReLU()
      (se): Identity()
      (dx_add): DxAdd()
      (rbr_reparam): Conv2d(384, 1408, kernel_size=(3, 3), stride=(2, 2), padding=(1, 1))
    )
  )
  (gap): AdaptiveAvgPool2d(output_size=1)
  (linear): Linear(in_features=1408, out_features=1000, bias=True)
  (identity): Identity()
  (dx_view): DxView()
)
[2023-10-16 14:57:53 RepVGG-A2] (main.py 150): INFO number of params: 25508798
[2023-10-16 14:57:53 RepVGG-A2] (main.py 193): INFO no checkpoint found in train_results/RepVGG-A2/qmaster, ignoring auto resume
[2023-10-16 14:57:53 RepVGG-A2] (main.py 199): INFO Start training
[2023-10-16 14:57:55 RepVGG-A2] (main.py 328): INFO Train: [0/300][0/10009]	eta 6:05:34 lr 0.000250	time 2.1915 (2.1915)	loss 5.1049 (5.1049)	grad_norm 404.1352 (404.1352)	mem 6833MB
…
